…
I0607 22:28:57.163476 26062 solver.cpp:87] Creating training net from net file: ./config/vgg16.prototxt
I0607 22:28:57.164055 26062 net.cpp:294] The NetState phase (0) differed from the phase (1) specified by a rule in layer data
I0607 22:28:57.164175 26062 net.cpp:51] Initializing net from parameters: 
name: "VGG_ILSVRC_16_layer"
state {
  phase: TRAIN
  level: 0
  stage: ""
}
layer {
  name: "data"
  type: "HDF5Data"
  top: "data"
  top: "freq"
  include {
    phase: TRAIN
  }
  hdf5_data_param {
    source: "train_h5.txt"
    batch_size: 16
  }
}
layer {
  name: "conv1_1"
  type: "Convolution"
  bottom: "data"
  top: "conv1_1"
  convolution_param {
    num_output: 64
    pad: 1
    kernel_size: 3
  }
}
layer {
  name: "relu1_1"
  type: "ReLU"
  bottom: "conv1_1"
  top: "conv1_1"
}
layer {
  name: "conv1_2"
  type: "Convolution"
  bottom: "conv1_1"
  top: "conv1_2"
  convolution_param {
    num_output: 64
    pad: 1
    kernel_size: 3
  }
}
layer {
  name: "relu1_2"
  type: "ReLU"
  bottom: "conv1_2"
  top: "conv1_2"
}
layer {
  name: "pool1"
  type: "Pooling"
  bottom: "conv1_2"
  top: "pool1"
  pooling_param {
    pool: MAX
    kernel_size: 2
    stride: 2
  }
}
layer {
  name: "conv2_1"
  type: "Convolution"
  bottom: "pool1"
  top: "conv2_1"
  convolution_param {
    num_output: 128
    pad: 1
    kernel_size: 3
  }
}
layer {
  name: "relu2_1"
  type: "ReLU"
  bottom: "conv2_1"
  top: "conv2_1"
}
layer {
  name: "conv2_2"
  type: "Convolution"
  bottom: "conv2_1"
  top: "conv2_2"
  convolution_param {
    num_output: 128
    pad: 1
    kernel_size: 3
  }
}
layer {
  name: "relu2_2"
  type: "ReLU"
  bottom: "conv2_2"
  top: "conv2_2"
}
layer {
  name: "pool2"
  type: "Pooling"
  bottom: "conv2_2"
  top: "pool2"
  pooling_param {
    pool: MAX
    kernel_size: 2
    stride: 2
  }
}
layer {
  name: "conv3_1"
  type: "Convolution"
  bottom: "pool2"
  top: "conv3_1"
  convolution_param {
    num_output: 256
    pad: 1
    kernel_size: 3
  }
}
layer {
  name: "relu3_1"
  type: "ReLU"
  bottom: "conv3_1"
  top: "conv3_1"
}
layer {
  name: "conv3_2"
  type: "Convolution"
  bottom: "conv3_1"
  top: "conv3_2"
  convolution_param {
    num_output: 256
    pad: 1
    kernel_size: 3
  }
}
layer {
  name: "relu3_2"
  type: "ReLU"
  bottom: "conv3_2"
  top: "conv3_2"
}
layer {
  name: "conv3_3"
  type: "Convolution"
  bottom: "conv3_2"
  top: "conv3_3"
  convolution_param {
    num_output: 256
    pad: 1
    kernel_size: 3
  }
}
layer {
  name: "relu3_3"
  type: "ReLU"
  bottom: "conv3_3"
  top: "conv3_3"
}
layer {
  name: "pool3"
  type: "Pooling"
  bottom: "conv3_3"
  top: "pool3"
  pooling_param {
    pool: MAX
    kernel_size: 2
    stride: 2
  }
}
layer {
  name: "conv4_1"
  type: "Convolution"
  bottom: "pool3"
  top: "conv4_1"
  convolution_param {
    num_output: 512
    pad: 1
    kernel_size: 3
  }
}
layer {
  name: "relu4_1"
  type: "ReLU"
  bottom: "conv4_1"
  top: "conv4_1"
}
layer {
  name: "conv4_2"
  type: "Convolution"
  bottom: "conv4_1"
  top: "conv4_2"
  convolution_param {
    num_output: 512
    pad: 1
    kernel_size: 3
  }
}
layer {
  name: "relu4_2"
  type: "ReLU"
  bottom: "conv4_2"
  top: "conv4_2"
}
layer {
  name: "conv4_3"
  type: "Convolution"
  bottom: "conv4_2"
  top: "conv4_3"
  convolution_param {
    num_output: 512
    pad: 1
    kernel_size: 3
  }
}
layer {
  name: "relu4_3"
  type: "ReLU"
  bottom: "conv4_3"
  top: "conv4_3"
}
layer {
  name: "pool4"
  type: "Pooling"
  bottom: "conv4_3"
  top: "pool4"
  pooling_param {
    pool: MAX
    kernel_size: 2
    stride: 2
  }
}
layer {
  name: "fc6_1"
  type: "InnerProduct"
  bottom: "pool4"
  top: "fc6_1"
  param {
    lr_mult: 1
    decay_mult: 1
  }
  param {
    lr_mult: 1
    decay_mult: 0
  }
  inner_product_param {
    num_output: 4096
    weight_filler {
      type: "gaussian"
      std: 0.005
    }
    bias_filler {
      type: "constant"
      value: 0
    }
  }
}
layer {
  name: "relu6"
  type: "ReLU"
  bottom: "fc6_1"
  top: "fc6_1"
}
layer {
  name: "drop6"
  type: "Dropout"
  bottom: "fc6_1"
  top: "fc6_1"
  dropout_param {
    dropout_ratio: 0.5
  }
}
layer {
  name: "fc7_1"
  type: "InnerProduct"
  bottom: "fc6_1"
  top: "fc7_1"
  param {
    lr_mult: 1
    decay_mult: 1
  }
  param {
    lr_mult: 1
    decay_mult: 0
  }
  inner_product_param {
    num_output: 1024
    weight_filler {
      type: "gaussian"
      std: 0.005
    }
    bias_filler {
      type: "constant"
      value: 0
    }
  }
}
layer {
  name: "relu7"
  type: "ReLU"
  bottom: "fc7_1"
  top: "fc7_1"
}
layer {
  name: "drop7"
  type: "Dropout"
  bottom: "fc7_1"
  top: "fc7_1"
  dropout_param {
    dropout_ratio: 0.5
  }
}
layer {
  name: "fc8_1"
  type: "InnerProduct"
  bottom: "fc7_1"
  top: "fc8_1"
  inner_product_param {
    num_output: 512
    weight_filler {
      type: "gaussian"
      std: 0.005
    }
    bias_filler {
      type: "constant"
      value: 0
    }
  }
}
layer {
  name: "ex_fc"
  type: "InnerProduct"
  bottom: "fc8_1"
  top: "pred"
  inner_product_param {
    num_output: 5
    weight_filler {
      type: "gaussian"
      std: 0.005
    }
    bias_filler {
      type: "constant"
      value: 0
    }
  }
}
layer {
  name: "loss"
  type: "EuclideanLoss"
  bottom: "pred"
  bottom: "freq"
  top: "loss"
}
I0607 22:28:57.164278 26062 layer_factory.hpp:77] Creating layer data
I0607 22:28:57.164505 26062 net.cpp:84] Creating Layer data
I0607 22:28:57.164510 26062 net.cpp:380] data -> data
I0607 22:28:57.164530 26062 net.cpp:380] data -> freq
I0607 22:28:57.164538 26062 hdf5_data_layer.cpp:80] Loading list of HDF5 filenames from: train_h5.txt
I0607 22:28:57.164822 26062 hdf5_data_layer.cpp:94] Number of HDF5 files: 1
I0607 22:28:57.171656 26062 hdf5.cpp:32] Datatype class: H5T_FLOAT
I0607 22:29:04.550709 26062 net.cpp:122] Setting up data
I0607 22:29:04.551153 26062 net.cpp:129] Top shape: 16 3 200 200 (1920000)
I0607 22:29:04.551168 26062 net.cpp:129] Top shape: 16 5 (80)
I0607 22:29:04.551174 26062 net.cpp:137] Memory required for data: 7680320
I0607 22:29:04.551192 26062 layer_factory.hpp:77] Creating layer conv1_1
I0607 22:29:04.551224 26062 net.cpp:84] Creating Layer conv1_1
I0607 22:29:04.551237 26062 net.cpp:406] conv1_1 <- data
I0607 22:29:04.551262 26062 net.cpp:380] conv1_1 -> conv1_1
I0607 22:29:05.493906 26062 net.cpp:122] Setting up conv1_1
I0607 22:29:05.493934 26062 net.cpp:129] Top shape: 16 64 200 200 (40960000)
I0607 22:29:05.493938 26062 net.cpp:137] Memory required for data: 171520320
I0607 22:29:05.493955 26062 layer_factory.hpp:77] Creating layer relu1_1
I0607 22:29:05.493966 26062 net.cpp:84] Creating Layer relu1_1
I0607 22:29:05.493970 26062 net.cpp:406] relu1_1 <- conv1_1
I0607 22:29:05.493975 26062 net.cpp:367] relu1_1 -> conv1_1 (in-place)
I0607 22:29:05.495616 26062 net.cpp:122] Setting up relu1_1
I0607 22:29:05.495625 26062 net.cpp:129] Top shape: 16 64 200 200 (40960000)
I0607 22:29:05.495628 26062 net.cpp:137] Memory required for data: 335360320
I0607 22:29:05.495630 26062 layer_factory.hpp:77] Creating layer conv1_2
I0607 22:29:05.495640 26062 net.cpp:84] Creating Layer conv1_2
I0607 22:29:05.495641 26062 net.cpp:406] conv1_2 <- conv1_1
I0607 22:29:05.495645 26062 net.cpp:380] conv1_2 -> conv1_2
I0607 22:29:05.502426 26062 net.cpp:122] Setting up conv1_2
I0607 22:29:05.502439 26062 net.cpp:129] Top shape: 16 64 200 200 (40960000)
I0607 22:29:05.502442 26062 net.cpp:137] Memory required for data: 499200320
I0607 22:29:05.502449 26062 layer_factory.hpp:77] Creating layer relu1_2
I0607 22:29:05.502454 26062 net.cpp:84] Creating Layer relu1_2
I0607 22:29:05.502457 26062 net.cpp:406] relu1_2 <- conv1_2
I0607 22:29:05.502461 26062 net.cpp:367] relu1_2 -> conv1_2 (in-place)
I0607 22:29:05.504568 26062 net.cpp:122] Setting up relu1_2
I0607 22:29:05.504577 26062 net.cpp:129] Top shape: 16 64 200 200 (40960000)
I0607 22:29:05.504580 26062 net.cpp:137] Memory required for data: 663040320
I0607 22:29:05.504583 26062 layer_factory.hpp:77] Creating layer pool1
I0607 22:29:05.504590 26062 net.cpp:84] Creating Layer pool1
I0607 22:29:05.504592 26062 net.cpp:406] pool1 <- conv1_2
I0607 22:29:05.504596 26062 net.cpp:380] pool1 -> pool1
I0607 22:29:05.504638 26062 net.cpp:122] Setting up pool1
I0607 22:29:05.504644 26062 net.cpp:129] Top shape: 16 64 100 100 (10240000)
I0607 22:29:05.504647 26062 net.cpp:137] Memory required for data: 704000320
I0607 22:29:05.504649 26062 layer_factory.hpp:77] Creating layer conv2_1
I0607 22:29:05.504654 26062 net.cpp:84] Creating Layer conv2_1
I0607 22:29:05.504657 26062 net.cpp:406] conv2_1 <- pool1
I0607 22:29:05.504662 26062 net.cpp:380] conv2_1 -> conv2_1
I0607 22:29:05.512377 26062 net.cpp:122] Setting up conv2_1
I0607 22:29:05.512389 26062 net.cpp:129] Top shape: 16 128 100 100 (20480000)
I0607 22:29:05.512392 26062 net.cpp:137] Memory required for data: 785920320
I0607 22:29:05.512400 26062 layer_factory.hpp:77] Creating layer relu2_1
I0607 22:29:05.512405 26062 net.cpp:84] Creating Layer relu2_1
I0607 22:29:05.512408 26062 net.cpp:406] relu2_1 <- conv2_1
I0607 22:29:05.512411 26062 net.cpp:367] relu2_1 -> conv2_1 (in-place)
I0607 22:29:05.513556 26062 net.cpp:122] Setting up relu2_1
I0607 22:29:05.513566 26062 net.cpp:129] Top shape: 16 128 100 100 (20480000)
I0607 22:29:05.513569 26062 net.cpp:137] Memory required for data: 867840320
I0607 22:29:05.513572 26062 layer_factory.hpp:77] Creating layer conv2_2
I0607 22:29:05.513579 26062 net.cpp:84] Creating Layer conv2_2
I0607 22:29:05.513582 26062 net.cpp:406] conv2_2 <- conv2_1
I0607 22:29:05.513586 26062 net.cpp:380] conv2_2 -> conv2_2
I0607 22:29:05.520709 26062 net.cpp:122] Setting up conv2_2
I0607 22:29:05.520722 26062 net.cpp:129] Top shape: 16 128 100 100 (20480000)
I0607 22:29:05.520725 26062 net.cpp:137] Memory required for data: 949760320
I0607 22:29:05.520730 26062 layer_factory.hpp:77] Creating layer relu2_2
I0607 22:29:05.520735 26062 net.cpp:84] Creating Layer relu2_2
I0607 22:29:05.520738 26062 net.cpp:406] relu2_2 <- conv2_2
I0607 22:29:05.520742 26062 net.cpp:367] relu2_2 -> conv2_2 (in-place)
I0607 22:29:05.522519 26062 net.cpp:122] Setting up relu2_2
I0607 22:29:05.522527 26062 net.cpp:129] Top shape: 16 128 100 100 (20480000)
I0607 22:29:05.522531 26062 net.cpp:137] Memory required for data: 1031680320
I0607 22:29:05.522532 26062 layer_factory.hpp:77] Creating layer pool2
I0607 22:29:05.522538 26062 net.cpp:84] Creating Layer pool2
I0607 22:29:05.522541 26062 net.cpp:406] pool2 <- conv2_2
I0607 22:29:05.522544 26062 net.cpp:380] pool2 -> pool2
I0607 22:29:05.522574 26062 net.cpp:122] Setting up pool2
I0607 22:29:05.522578 26062 net.cpp:129] Top shape: 16 128 50 50 (5120000)
I0607 22:29:05.522580 26062 net.cpp:137] Memory required for data: 1052160320
I0607 22:29:05.522583 26062 layer_factory.hpp:77] Creating layer conv3_1
I0607 22:29:05.522589 26062 net.cpp:84] Creating Layer conv3_1
I0607 22:29:05.522591 26062 net.cpp:406] conv3_1 <- pool2
I0607 22:29:05.522596 26062 net.cpp:380] conv3_1 -> conv3_1
I0607 22:29:05.530395 26062 net.cpp:122] Setting up conv3_1
I0607 22:29:05.530407 26062 net.cpp:129] Top shape: 16 256 50 50 (10240000)
I0607 22:29:05.530411 26062 net.cpp:137] Memory required for data: 1093120320
I0607 22:29:05.530418 26062 layer_factory.hpp:77] Creating layer relu3_1
I0607 22:29:05.530423 26062 net.cpp:84] Creating Layer relu3_1
I0607 22:29:05.530426 26062 net.cpp:406] relu3_1 <- conv3_1
I0607 22:29:05.530431 26062 net.cpp:367] relu3_1 -> conv3_1 (in-place)
I0607 22:29:05.532423 26062 net.cpp:122] Setting up relu3_1
I0607 22:29:05.532430 26062 net.cpp:129] Top shape: 16 256 50 50 (10240000)
I0607 22:29:05.532433 26062 net.cpp:137] Memory required for data: 1134080320
I0607 22:29:05.532435 26062 layer_factory.hpp:77] Creating layer conv3_2
I0607 22:29:05.532441 26062 net.cpp:84] Creating Layer conv3_2
I0607 22:29:05.532452 26062 net.cpp:406] conv3_2 <- conv3_1
I0607 22:29:05.532457 26062 net.cpp:380] conv3_2 -> conv3_2
I0607 22:29:05.539582 26062 net.cpp:122] Setting up conv3_2
I0607 22:29:05.539595 26062 net.cpp:129] Top shape: 16 256 50 50 (10240000)
I0607 22:29:05.539599 26062 net.cpp:137] Memory required for data: 1175040320
I0607 22:29:05.539604 26062 layer_factory.hpp:77] Creating layer relu3_2
I0607 22:29:05.539609 26062 net.cpp:84] Creating Layer relu3_2
I0607 22:29:05.539613 26062 net.cpp:406] relu3_2 <- conv3_2
I0607 22:29:05.539616 26062 net.cpp:367] relu3_2 -> conv3_2 (in-place)
I0607 22:29:05.541388 26062 net.cpp:122] Setting up relu3_2
I0607 22:29:05.541396 26062 net.cpp:129] Top shape: 16 256 50 50 (10240000)
I0607 22:29:05.541399 26062 net.cpp:137] Memory required for data: 1216000320
I0607 22:29:05.541401 26062 layer_factory.hpp:77] Creating layer conv3_3
I0607 22:29:05.541407 26062 net.cpp:84] Creating Layer conv3_3
I0607 22:29:05.541409 26062 net.cpp:406] conv3_3 <- conv3_2
I0607 22:29:05.541414 26062 net.cpp:380] conv3_3 -> conv3_3
I0607 22:29:05.550647 26062 net.cpp:122] Setting up conv3_3
I0607 22:29:05.550662 26062 net.cpp:129] Top shape: 16 256 50 50 (10240000)
I0607 22:29:05.550664 26062 net.cpp:137] Memory required for data: 1256960320
I0607 22:29:05.550670 26062 layer_factory.hpp:77] Creating layer relu3_3
I0607 22:29:05.550678 26062 net.cpp:84] Creating Layer relu3_3
I0607 22:29:05.550679 26062 net.cpp:406] relu3_3 <- conv3_3
I0607 22:29:05.550683 26062 net.cpp:367] relu3_3 -> conv3_3 (in-place)
I0607 22:29:05.552492 26062 net.cpp:122] Setting up relu3_3
I0607 22:29:05.552500 26062 net.cpp:129] Top shape: 16 256 50 50 (10240000)
I0607 22:29:05.552503 26062 net.cpp:137] Memory required for data: 1297920320
I0607 22:29:05.552505 26062 layer_factory.hpp:77] Creating layer pool3
I0607 22:29:05.552510 26062 net.cpp:84] Creating Layer pool3
I0607 22:29:05.552513 26062 net.cpp:406] pool3 <- conv3_3
I0607 22:29:05.552517 26062 net.cpp:380] pool3 -> pool3
I0607 22:29:05.552548 26062 net.cpp:122] Setting up pool3
I0607 22:29:05.552552 26062 net.cpp:129] Top shape: 16 256 25 25 (2560000)
I0607 22:29:05.552556 26062 net.cpp:137] Memory required for data: 1308160320
I0607 22:29:05.552558 26062 layer_factory.hpp:77] Creating layer conv4_1
I0607 22:29:05.552563 26062 net.cpp:84] Creating Layer conv4_1
I0607 22:29:05.552567 26062 net.cpp:406] conv4_1 <- pool3
I0607 22:29:05.552570 26062 net.cpp:380] conv4_1 -> conv4_1
I0607 22:29:05.560046 26062 net.cpp:122] Setting up conv4_1
I0607 22:29:05.560061 26062 net.cpp:129] Top shape: 16 512 25 25 (5120000)
I0607 22:29:05.560065 26062 net.cpp:137] Memory required for data: 1328640320
I0607 22:29:05.560070 26062 layer_factory.hpp:77] Creating layer relu4_1
I0607 22:29:05.560076 26062 net.cpp:84] Creating Layer relu4_1
I0607 22:29:05.560080 26062 net.cpp:406] relu4_1 <- conv4_1
I0607 22:29:05.560083 26062 net.cpp:367] relu4_1 -> conv4_1 (in-place)
I0607 22:29:05.562180 26062 net.cpp:122] Setting up relu4_1
I0607 22:29:05.562188 26062 net.cpp:129] Top shape: 16 512 25 25 (5120000)
I0607 22:29:05.562191 26062 net.cpp:137] Memory required for data: 1349120320
I0607 22:29:05.562193 26062 layer_factory.hpp:77] Creating layer conv4_2
I0607 22:29:05.562199 26062 net.cpp:84] Creating Layer conv4_2
I0607 22:29:05.562201 26062 net.cpp:406] conv4_2 <- conv4_1
I0607 22:29:05.562206 26062 net.cpp:380] conv4_2 -> conv4_2
I0607 22:29:05.569247 26062 net.cpp:122] Setting up conv4_2
I0607 22:29:05.569264 26062 net.cpp:129] Top shape: 16 512 25 25 (5120000)
I0607 22:29:05.569267 26062 net.cpp:137] Memory required for data: 1369600320
I0607 22:29:05.569278 26062 layer_factory.hpp:77] Creating layer relu4_2
I0607 22:29:05.569285 26062 net.cpp:84] Creating Layer relu4_2
I0607 22:29:05.569288 26062 net.cpp:406] relu4_2 <- conv4_2
I0607 22:29:05.569293 26062 net.cpp:367] relu4_2 -> conv4_2 (in-place)
I0607 22:29:05.571486 26062 net.cpp:122] Setting up relu4_2
I0607 22:29:05.571497 26062 net.cpp:129] Top shape: 16 512 25 25 (5120000)
I0607 22:29:05.571501 26062 net.cpp:137] Memory required for data: 1390080320
I0607 22:29:05.571514 26062 layer_factory.hpp:77] Creating layer conv4_3
I0607 22:29:05.571521 26062 net.cpp:84] Creating Layer conv4_3
I0607 22:29:05.571526 26062 net.cpp:406] conv4_3 <- conv4_2
I0607 22:29:05.571529 26062 net.cpp:380] conv4_3 -> conv4_3
I0607 22:29:05.578483 26062 net.cpp:122] Setting up conv4_3
I0607 22:29:05.578502 26062 net.cpp:129] Top shape: 16 512 25 25 (5120000)
I0607 22:29:05.578505 26062 net.cpp:137] Memory required for data: 1410560320
I0607 22:29:05.578511 26062 layer_factory.hpp:77] Creating layer relu4_3
I0607 22:29:05.578516 26062 net.cpp:84] Creating Layer relu4_3
I0607 22:29:05.578519 26062 net.cpp:406] relu4_3 <- conv4_3
I0607 22:29:05.578523 26062 net.cpp:367] relu4_3 -> conv4_3 (in-place)
I0607 22:29:05.580711 26062 net.cpp:122] Setting up relu4_3
I0607 22:29:05.580719 26062 net.cpp:129] Top shape: 16 512 25 25 (5120000)
I0607 22:29:05.580723 26062 net.cpp:137] Memory required for data: 1431040320
I0607 22:29:05.580724 26062 layer_factory.hpp:77] Creating layer pool4
I0607 22:29:05.580729 26062 net.cpp:84] Creating Layer pool4
I0607 22:29:05.580732 26062 net.cpp:406] pool4 <- conv4_3
I0607 22:29:05.580736 26062 net.cpp:380] pool4 -> pool4
I0607 22:29:05.580767 26062 net.cpp:122] Setting up pool4
I0607 22:29:05.580771 26062 net.cpp:129] Top shape: 16 512 13 13 (1384448)
I0607 22:29:05.580773 26062 net.cpp:137] Memory required for data: 1436578112
I0607 22:29:05.580776 26062 layer_factory.hpp:77] Creating layer fc6_1
I0607 22:29:05.580785 26062 net.cpp:84] Creating Layer fc6_1
I0607 22:29:05.580790 26062 net.cpp:406] fc6_1 <- pool4
I0607 22:29:05.580795 26062 net.cpp:380] fc6_1 -> fc6_1
I0607 22:29:12.675204 26062 net.cpp:122] Setting up fc6_1
I0607 22:29:12.675235 26062 net.cpp:129] Top shape: 16 4096 (65536)
I0607 22:29:12.675238 26062 net.cpp:137] Memory required for data: 1436840256
I0607 22:29:12.675246 26062 layer_factory.hpp:77] Creating layer relu6
I0607 22:29:12.675254 26062 net.cpp:84] Creating Layer relu6
I0607 22:29:12.675258 26062 net.cpp:406] relu6 <- fc6_1
I0607 22:29:12.675266 26062 net.cpp:367] relu6 -> fc6_1 (in-place)
I0607 22:29:12.675443 26062 net.cpp:122] Setting up relu6
I0607 22:29:12.675451 26062 net.cpp:129] Top shape: 16 4096 (65536)
I0607 22:29:12.675454 26062 net.cpp:137] Memory required for data: 1437102400
I0607 22:29:12.675457 26062 layer_factory.hpp:77] Creating layer drop6
I0607 22:29:12.675463 26062 net.cpp:84] Creating Layer drop6
I0607 22:29:12.675465 26062 net.cpp:406] drop6 <- fc6_1
I0607 22:29:12.675469 26062 net.cpp:367] drop6 -> fc6_1 (in-place)
I0607 22:29:12.675493 26062 net.cpp:122] Setting up drop6
I0607 22:29:12.675499 26062 net.cpp:129] Top shape: 16 4096 (65536)
I0607 22:29:12.675501 26062 net.cpp:137] Memory required for data: 1437364544
I0607 22:29:12.675503 26062 layer_factory.hpp:77] Creating layer fc7_1
I0607 22:29:12.675510 26062 net.cpp:84] Creating Layer fc7_1
I0607 22:29:12.675513 26062 net.cpp:406] fc7_1 <- fc6_1
I0607 22:29:12.675518 26062 net.cpp:380] fc7_1 -> fc7_1
I0607 22:29:12.761723 26062 net.cpp:122] Setting up fc7_1
I0607 22:29:12.761742 26062 net.cpp:129] Top shape: 16 1024 (16384)
I0607 22:29:12.761746 26062 net.cpp:137] Memory required for data: 1437430080
I0607 22:29:12.761754 26062 layer_factory.hpp:77] Creating layer relu7
I0607 22:29:12.761761 26062 net.cpp:84] Creating Layer relu7
I0607 22:29:12.761766 26062 net.cpp:406] relu7 <- fc7_1
I0607 22:29:12.761772 26062 net.cpp:367] relu7 -> fc7_1 (in-place)
I0607 22:29:12.761950 26062 net.cpp:122] Setting up relu7
I0607 22:29:12.761958 26062 net.cpp:129] Top shape: 16 1024 (16384)
I0607 22:29:12.761961 26062 net.cpp:137] Memory required for data: 1437495616
I0607 22:29:12.761963 26062 layer_factory.hpp:77] Creating layer drop7
I0607 22:29:12.761970 26062 net.cpp:84] Creating Layer drop7
I0607 22:29:12.761972 26062 net.cpp:406] drop7 <- fc7_1
I0607 22:29:12.761976 26062 net.cpp:367] drop7 -> fc7_1 (in-place)
I0607 22:29:12.761996 26062 net.cpp:122] Setting up drop7
I0607 22:29:12.762001 26062 net.cpp:129] Top shape: 16 1024 (16384)
I0607 22:29:12.762017 26062 net.cpp:137] Memory required for data: 1437561152
I0607 22:29:12.762018 26062 layer_factory.hpp:77] Creating layer fc8_1
I0607 22:29:12.762025 26062 net.cpp:84] Creating Layer fc8_1
I0607 22:29:12.762028 26062 net.cpp:406] fc8_1 <- fc7_1
I0607 22:29:12.762032 26062 net.cpp:380] fc8_1 -> fc8_1
I0607 22:29:12.772722 26062 net.cpp:122] Setting up fc8_1
I0607 22:29:12.772734 26062 net.cpp:129] Top shape: 16 512 (8192)
I0607 22:29:12.772737 26062 net.cpp:137] Memory required for data: 1437593920
I0607 22:29:12.772742 26062 layer_factory.hpp:77] Creating layer ex_fc
I0607 22:29:12.772752 26062 net.cpp:84] Creating Layer ex_fc
I0607 22:29:12.772754 26062 net.cpp:406] ex_fc <- fc8_1
I0607 22:29:12.772758 26062 net.cpp:380] ex_fc -> pred
I0607 22:29:12.772884 26062 net.cpp:122] Setting up ex_fc
I0607 22:29:12.772889 26062 net.cpp:129] Top shape: 16 5 (80)
I0607 22:29:12.772892 26062 net.cpp:137] Memory required for data: 1437594240
I0607 22:29:12.772897 26062 layer_factory.hpp:77] Creating layer loss
I0607 22:29:12.773180 26062 net.cpp:84] Creating Layer loss
I0607 22:29:12.773185 26062 net.cpp:406] loss <- pred
I0607 22:29:12.773188 26062 net.cpp:406] loss <- freq
I0607 22:29:12.773193 26062 net.cpp:380] loss -> loss
I0607 22:29:12.773228 26062 net.cpp:122] Setting up loss
…
